Collecting trainDataset
Collecting testDataset
Collecting training, validation and test data
  Training set size = 114498
  Validation set size = 49070
  Test set size = 43908
Preparing Numpy Arrays
  Feature tensor shape = (58, 5, 1)
Creating Neural Network
Training Neural Network
Model: "sequential"
_________________________________________________________________
Layer (type)                 Output Shape              Param #   
=================================================================
conv2d (Conv2D)              (None, 54, 1, 16)         416       
_________________________________________________________________
dropout (Dropout)            (None, 54, 1, 16)         0         
_________________________________________________________________
flatten (Flatten)            (None, 864)               0         
_________________________________________________________________
dense (Dense)                (None, 16)                13840     
_________________________________________________________________
dropout_1 (Dropout)          (None, 16)                0         
_________________________________________________________________
dense_1 (Dense)              (None, 16)                272       
_________________________________________________________________
dropout_2 (Dropout)          (None, 16)                0         
_________________________________________________________________
dense_2 (Dense)              (None, 1)                 17        
=================================================================
Total params: 14,545
Trainable params: 14,545
Non-trainable params: 0
_________________________________________________________________
Train on 114498 samples, validate on 49070 samples
Epoch 1/10
114498/114498 - 10s - loss: 0.4101 - accuracy: 0.8196 - val_loss: 0.3385 - val_accuracy: 0.8596
Epoch 2/10
114498/114498 - 10s - loss: 0.3506 - accuracy: 0.8497 - val_loss: 0.3159 - val_accuracy: 0.8650
…
