Collecting trainDataset
Collecting testDataset
Collecting training, validation and test data
  Training set size = 114498
  Validation set size = 49070
  Test set size = 7815
Preparing Numpy Arrays
  Feature tensor shape = (58, 3, 1)
Creating Neural Network
Training Neural Network
Model: "sequential"
_________________________________________________________________
Layer (type)                 Output Shape              Param #   
=================================================================
conv2d (Conv2D)              (None, 56, 1, 16)         160       
_________________________________________________________________
dropout (Dropout)            (None, 56, 1, 16)         0         
_________________________________________________________________
flatten (Flatten)            (None, 896)               0         
_________________________________________________________________
dense (Dense)                (None, 16)                14352     
_________________________________________________________________
dropout_1 (Dropout)          (None, 16)                0         
_________________________________________________________________
dense_1 (Dense)              (None, 16)                272       
_________________________________________________________________
dropout_2 (Dropout)          (None, 16)                0         
_________________________________________________________________
dense_2 (Dense)              (None, 1)                 17        
=================================================================
Total params: 14,801
Trainable params: 14,801
Non-trainable params: 0
_________________________________________________________________
Train on 114498 samples, validate on 49070 samples
Epoch 1/10
114498/114498 - 7s - loss: 0.4330 - accuracy: 0.8009 - val_loss: 0.3588 - val_accuracy: 0.8470
Epoch 2/10
114498/114498 - 7s - loss: 0.3631 - accuracy: 0.8439 - val_loss: 0.3360 - val_accuracy: 0.8530
…
